…
WARNING:tensorflow:From /usr/local/lib/python3.6/dist-packages/keras/backend/tensorflow_backend.py:3445: calling dropout (from tensorflow.python.ops.nn_ops) with keep_prob is deprecated and will be removed in a future version.
Instructions for updating:
Please use `rate` instead of `keep_prob`. Rate should be set to `rate = 1 - keep_prob`.
Learning rate:  0.001
__________________________________________________________________________________________________
Layer (type)                    Output Shape         Param #     Connected to                     
==================================================================================================
input_1 (InputLayer)            (None, 32, 32, 3)    0                                            
__________________________________________________________________________________________________
zero_padding2d_1 (ZeroPadding2D (None, 38, 38, 3)    0           input_1[0][0]                    
__________________________________________________________________________________________________
conv1/conv (Conv2D)             (None, 16, 16, 64)   9408        zero_padding2d_1[0][0]           
__________________________________________________________________________________________________
conv1/bn (BatchNormalization)   (None, 16, 16, 64)   256         conv1/conv[0][0]                 
__________________________________________________________________________________________________
conv1/relu (Activation)         (None, 16, 16, 64)   0           conv1/bn[0][0]                   
__________________________________________________________________________________________________
zero_padding2d_2 (ZeroPadding2D (None, 18, 18, 64)   0           conv1/relu[0][0]                 
__________________________________________________________________________________________________
pool1 (MaxPooling2D)            (None, 8, 8, 64)     0           zero_padding2d_2[0][0]           
__________________________________________________________________________________________________
conv2_block1_0_bn (BatchNormali (None, 8, 8, 64)     256         pool1[0][0]                      
__________________________________________________________________________________________________
conv2_block1_0_relu (Activation (None, 8, 8, 64)     0           conv2_block1_0_bn[0][0]          
__________________________________________________________________________________________________
conv2_block1_1_conv (Conv2D)    (None, 8, 8, 128)    8192        conv2_block1_0_relu[0][0]        
__________________________________________________________________________________________________
conv2_block1_1_bn (BatchNormali (None, 8, 8, 128)    512         conv2_block1_1_conv[0][0]        
__________________________________________________________________________________________________
conv2_block1_1_relu (Activation (None, 8, 8, 128)    0           conv2_block1_1_bn[0][0]          
__________________________________________________________________________________________________
conv2_block1_2_conv (Conv2D)    (None, 8, 8, 32)     36864       conv2_block1_1_relu[0][0]        
__________________________________________________________________________________________________
conv2_block1_concat (Concatenat (None, 8, 8, 96)     0           pool1[0][0]                      
                                                                 conv2_block1_2_conv[0][0]        
__________________________________________________________________________________________________
conv2_block2_0_bn (BatchNormali (None, 8, 8, 96)     384         conv2_block1_concat[0][0]        
__________________________________________________________________________________________________
conv2_block2_0_relu (Activation (None, 8, 8, 96)     0           conv2_block2_0_bn[0][0]          
__________________________________________________________________________________________________
conv2_block2_1_conv (Conv2D)    (None, 8, 8, 128)    12288       conv2_block2_0_relu[0][0]        
__________________________________________________________________________________________________
conv2_block2_1_bn (BatchNormali (None, 8, 8, 128)    512         conv2_block2_1_conv[0][0]        
__________________________________________________________________________________________________
conv2_block2_1_relu (Activation (None, 8, 8, 128)    0           conv2_block2_1_bn[0][0]          
__________________________________________________________________________________________________
conv2_block2_2_conv (Conv2D)    (None, 8, 8, 32)     36864       conv2_block2_1_relu[0][0]        
__________________________________________________________________________________________________
conv2_block2_concat (Concatenat (None, 8, 8, 128)    0           conv2_block1_concat[0][0]        
                                                                 conv2_block2_2_conv[0][0]        
__________________________________________________________________________________________________
conv2_block3_0_bn (BatchNormali (None, 8, 8, 128)    512         conv2_block2_concat[0][0]        
__________________________________________________________________________________________________
conv2_block3_0_relu (Activation (None, 8, 8, 128)    0           conv2_block3_0_bn[0][0]          
__________________________________________________________________________________________________
conv2_block3_1_conv (Conv2D)    (None, 8, 8, 128)    16384       conv2_block3_0_relu[0][0]        
__________________________________________________________________________________________________
conv2_block3_1_bn (BatchNormali (None, 8, 8, 128)    512         conv2_block3_1_conv[0][0]        
__________________________________________________________________________________________________
conv2_block3_1_relu (Activation (None, 8, 8, 128)    0           conv2_block3_1_bn[0][0]          
__________________________________________________________________________________________________
conv2_block3_2_conv (Conv2D)    (None, 8, 8, 32)     36864       conv2_block3_1_relu[0][0]        
__________________________________________________________________________________________________
conv2_block3_concat (Concatenat (None, 8, 8, 160)    0           conv2_block2_concat[0][0]        
                                                                 conv2_block3_2_conv[0][0]        
__________________________________________________________________________________________________
conv2_block4_0_bn (BatchNormali (None, 8, 8, 160)    640         conv2_block3_concat[0][0]        
__________________________________________________________________________________________________
conv2_block4_0_relu (Activation (None, 8, 8, 160)    0           conv2_block4_0_bn[0][0]          
__________________________________________________________________________________________________
conv2_block4_1_conv (Conv2D)    (None, 8, 8, 128)    20480       conv2_block4_0_relu[0][0]        
__________________________________________________________________________________________________
conv2_block4_1_bn (BatchNormali (None, 8, 8, 128)    512         conv2_block4_1_conv[0][0]        
__________________________________________________________________________________________________
conv2_block4_1_relu (Activation (None, 8, 8, 128)    0           conv2_block4_1_bn[0][0]          
__________________________________________________________________________________________________
conv2_block4_2_conv (Conv2D)    (None, 8, 8, 32)     36864       conv2_block4_1_relu[0][0]        
__________________________________________________________________________________________________
conv2_block4_concat (Concatenat (None, 8, 8, 192)    0           conv2_block3_concat[0][0]        
                                                                 conv2_block4_2_conv[0][0]        
__________________________________________________________________________________________________
conv2_block5_0_bn (BatchNormali (None, 8, 8, 192)    768         conv2_block4_concat[0][0]        
__________________________________________________________________________________________________
conv2_block5_0_relu (Activation (None, 8, 8, 192)    0           conv2_block5_0_bn[0][0]          
__________________________________________________________________________________________________
conv2_block5_1_conv (Conv2D)    (None, 8, 8, 128)    24576       conv2_block5_0_relu[0][0]        
__________________________________________________________________________________________________
conv2_block5_1_bn (BatchNormali (None, 8, 8, 128)    512         conv2_block5_1_conv[0][0]        
__________________________________________________________________________________________________
conv2_block5_1_relu (Activation (None, 8, 8, 128)    0           conv2_block5_1_bn[0][0]          
__________________________________________________________________________________________________
conv2_block5_2_conv (Conv2D)    (None, 8, 8, 32)     36864       conv2_block5_1_relu[0][0]        
__________________________________________________________________________________________________
conv2_block5_concat (Concatenat (None, 8, 8, 224)    0           conv2_block4_concat[0][0]        
                                                                 conv2_block5_2_conv[0][0]        
__________________________________________________________________________________________________
conv2_block6_0_bn (BatchNormali (None, 8, 8, 224)    896         conv2_block5_concat[0][0]        
__________________________________________________________________________________________________
conv2_block6_0_relu (Activation (None, 8, 8, 224)    0           conv2_block6_0_bn[0][0]          
__________________________________________________________________________________________________
conv2_block6_1_conv (Conv2D)    (None, 8, 8, 128)    28672       conv2_block6_0_relu[0][0]        
__________________________________________________________________________________________________
conv2_block6_1_bn (BatchNormali (None, 8, 8, 128)    512         conv2_block6_1_conv[0][0]        
__________________________________________________________________________________________________
conv2_block6_1_relu (Activation (None, 8, 8, 128)    0           conv2_block6_1_bn[0][0]          
__________________________________________________________________________________________________
conv2_block6_2_conv (Conv2D)    (None, 8, 8, 32)     36864       conv2_block6_1_relu[0][0]        
__________________________________________________________________________________________________
conv2_block6_concat (Concatenat (None, 8, 8, 256)    0           conv2_block5_concat[0][0]        
                                                                 conv2_block6_2_conv[0][0]        
__________________________________________________________________________________________________
pool2_bn (BatchNormalization)   (None, 8, 8, 256)    1024        conv2_block6_concat[0][0]        
__________________________________________________________________________________________________
pool2_relu (Activation)         (None, 8, 8, 256)    0           pool2_bn[0][0]                   
__________________________________________________________________________________________________
pool2_conv (Conv2D)             (None, 8, 8, 128)    32768       pool2_relu[0][0]                 
__________________________________________________________________________________________________
pool2_pool (AveragePooling2D)   (None, 4, 4, 128)    0           pool2_conv[0][0]                 
__________________________________________________________________________________________________
conv3_block1_0_bn (BatchNormali (None, 4, 4, 128)    512         pool2_pool[0][0]                 
__________________________________________________________________________________________________
conv3_block1_0_relu (Activation (None, 4, 4, 128)    0           conv3_block1_0_bn[0][0]          
__________________________________________________________________________________________________
conv3_block1_1_conv (Conv2D)    (None, 4, 4, 128)    16384       conv3_block1_0_relu[0][0]        
__________________________________________________________________________________________________
conv3_block1_1_bn (BatchNormali (None, 4, 4, 128)    512         conv3_block1_1_conv[0][0]        
__________________________________________________________________________________________________
conv3_block1_1_relu (Activation (None, 4, 4, 128)    0           conv3_block1_1_bn[0][0]          
__________________________________________________________________________________________________
conv3_block1_2_conv (Conv2D)    (None, 4, 4, 32)     36864       conv3_block1_1_relu[0][0]        
__________________________________________________________________________________________________
conv3_block1_concat (Concatenat (None, 4, 4, 160)    0           pool2_pool[0][0]                 
                                                                 conv3_block1_2_conv[0][0]        
__________________________________________________________________________________________________
conv3_block2_0_bn (BatchNormali (None, 4, 4, 160)    640         conv3_block1_concat[0][0]        
__________________________________________________________________________________________________
conv3_block2_0_relu (Activation (None, 4, 4, 160)    0           conv3_block2_0_bn[0][0]          
__________________________________________________________________________________________________
conv3_block2_1_conv (Conv2D)    (None, 4, 4, 128)    20480       conv3_block2_0_relu[0][0]        
__________________________________________________________________________________________________
conv3_block2_1_bn (BatchNormali (None, 4, 4, 128)    512         conv3_block2_1_conv[0][0]        
__________________________________________________________________________________________________
conv3_block2_1_relu (Activation (None, 4, 4, 128)    0           conv3_block2_1_bn[0][0]          
__________________________________________________________________________________________________
conv3_block2_2_conv (Conv2D)    (None, 4, 4, 32)     36864       conv3_block2_1_relu[0][0]        
__________________________________________________________________________________________________
conv3_block2_concat (Concatenat (None, 4, 4, 192)    0           conv3_block1_concat[0][0]        
                                                                 conv3_block2_2_conv[0][0]        
__________________________________________________________________________________________________
conv3_block3_0_bn (BatchNormali (None, 4, 4, 192)    768         conv3_block2_concat[0][0]        
__________________________________________________________________________________________________
conv3_block3_0_relu (Activation (None, 4, 4, 192)    0           conv3_block3_0_bn[0][0]          
__________________________________________________________________________________________________
conv3_block3_1_conv (Conv2D)    (None, 4, 4, 128)    24576       conv3_block3_0_relu[0][0]        
__________________________________________________________________________________________________
conv3_block3_1_bn (BatchNormali (None, 4, 4, 128)    512         conv3_block3_1_conv[0][0]        
__________________________________________________________________________________________________
conv3_block3_1_relu (Activation (None, 4, 4, 128)    0           conv3_block3_1_bn[0][0]          
__________________________________________________________________________________________________
conv3_block3_2_conv (Conv2D)    (None, 4, 4, 32)     36864       conv3_block3_1_relu[0][0]        
__________________________________________________________________________________________________
conv3_block3_concat (Concatenat (None, 4, 4, 224)    0           conv3_block2_concat[0][0]        
                                                                 conv3_block3_2_conv[0][0]        
__________________________________________________________________________________________________
conv3_block4_0_bn (BatchNormali (None, 4, 4, 224)    896         conv3_block3_concat[0][0]        
__________________________________________________________________________________________________
conv3_block4_0_relu (Activation (None, 4, 4, 224)    0           conv3_block4_0_bn[0][0]          
__________________________________________________________________________________________________
conv3_block4_1_conv (Conv2D)    (None, 4, 4, 128)    28672       conv3_block4_0_relu[0][0]        
__________________________________________________________________________________________________
conv3_block4_1_bn (BatchNormali (None, 4, 4, 128)    512         conv3_block4_1_conv[0][0]        
__________________________________________________________________________________________________
conv3_block4_1_relu (Activation (None, 4, 4, 128)    0           conv3_block4_1_bn[0][0]          
__________________________________________________________________________________________________
conv3_block4_2_conv (Conv2D)    (None, 4, 4, 32)     36864       conv3_block4_1_relu[0][0]        
__________________________________________________________________________________________________
conv3_block4_concat (Concatenat (None, 4, 4, 256)    0           conv3_block3_concat[0][0]        
                                                                 conv3_block4_2_conv[0][0]        
__________________________________________________________________________________________________
conv3_block5_0_bn (BatchNormali (None, 4, 4, 256)    1024        conv3_block4_concat[0][0]        
__________________________________________________________________________________________________
conv3_block5_0_relu (Activation (None, 4, 4, 256)    0           conv3_block5_0_bn[0][0]          
__________________________________________________________________________________________________
conv3_block5_1_conv (Conv2D)    (None, 4, 4, 128)    32768       conv3_block5_0_relu[0][0]        
__________________________________________________________________________________________________
conv3_block5_1_bn (BatchNormali (None, 4, 4, 128)    512         conv3_block5_1_conv[0][0]        
__________________________________________________________________________________________________
conv3_block5_1_relu (Activation (None, 4, 4, 128)    0           conv3_block5_1_bn[0][0]          
__________________________________________________________________________________________________
conv3_block5_2_conv (Conv2D)    (None, 4, 4, 32)     36864       conv3_block5_1_relu[0][0]        
__________________________________________________________________________________________________
conv3_block5_concat (Concatenat (None, 4, 4, 288)    0           conv3_block4_concat[0][0]        
                                                                 conv3_block5_2_conv[0][0]        
__________________________________________________________________________________________________
conv3_block6_0_bn (BatchNormali (None, 4, 4, 288)    1152        conv3_block5_concat[0][0]        
__________________________________________________________________________________________________
conv3_block6_0_relu (Activation (None, 4, 4, 288)    0           conv3_block6_0_bn[0][0]          
__________________________________________________________________________________________________
conv3_block6_1_conv (Conv2D)    (None, 4, 4, 128)    36864       conv3_block6_0_relu[0][0]        
__________________________________________________________________________________________________
conv3_block6_1_bn (BatchNormali (None, 4, 4, 128)    512         conv3_block6_1_conv[0][0]        
__________________________________________________________________________________________________
conv3_block6_1_relu (Activation (None, 4, 4, 128)    0           conv3_block6_1_bn[0][0]          
__________________________________________________________________________________________________
conv3_block6_2_conv (Conv2D)    (None, 4, 4, 32)     36864       conv3_block6_1_relu[0][0]        
__________________________________________________________________________________________________
conv3_block6_concat (Concatenat (None, 4, 4, 320)    0           conv3_block5_concat[0][0]        
                                                                 conv3_block6_2_conv[0][0]        
__________________________________________________________________________________________________
conv3_block7_0_bn (BatchNormali (None, 4, 4, 320)    1280        conv3_block6_concat[0][0]        
__________________________________________________________________________________________________
conv3_block7_0_relu (Activation (None, 4, 4, 320)    0           conv3_block7_0_bn[0][0]          
__________________________________________________________________________________________________
conv3_block7_1_conv (Conv2D)    (None, 4, 4, 128)    40960       conv3_block7_0_relu[0][0]        
__________________________________________________________________________________________________
conv3_block7_1_bn (BatchNormali (None, 4, 4, 128)    512         conv3_block7_1_conv[0][0]        
__________________________________________________________________________________________________
conv3_block7_1_relu (Activation (None, 4, 4, 128)    0           conv3_block7_1_bn[0][0]          
__________________________________________________________________________________________________
conv3_block7_2_conv (Conv2D)    (None, 4, 4, 32)     36864       conv3_block7_1_relu[0][0]        
__________________________________________________________________________________________________
conv3_block7_concat (Concatenat (None, 4, 4, 352)    0           conv3_block6_concat[0][0]        
                                                                 conv3_block7_2_conv[0][0]        
__________________________________________________________________________________________________
conv3_block8_0_bn (BatchNormali (None, 4, 4, 352)    1408        conv3_block7_concat[0][0]        
__________________________________________________________________________________________________
conv3_block8_0_relu (Activation (None, 4, 4, 352)    0           conv3_block8_0_bn[0][0]          
__________________________________________________________________________________________________
conv3_block8_1_conv (Conv2D)    (None, 4, 4, 128)    45056       conv3_block8_0_relu[0][0]        
__________________________________________________________________________________________________
conv3_block8_1_bn (BatchNormali (None, 4, 4, 128)    512         conv3_block8_1_conv[0][0]        
__________________________________________________________________________________________________
conv3_block8_1_relu (Activation (None, 4, 4, 128)    0           conv3_block8_1_bn[0][0]          
__________________________________________________________________________________________________
conv3_block8_2_conv (Conv2D)    (None, 4, 4, 32)     36864       conv3_block8_1_relu[0][0]        
__________________________________________________________________________________________________
conv3_block8_concat (Concatenat (None, 4, 4, 384)    0           conv3_block7_concat[0][0]        
                                                                 conv3_block8_2_conv[0][0]        
__________________________________________________________________________________________________
conv3_block9_0_bn (BatchNormali (None, 4, 4, 384)    1536        conv3_block8_concat[0][0]        
__________________________________________________________________________________________________
conv3_block9_0_relu (Activation (None, 4, 4, 384)    0           conv3_block9_0_bn[0][0]          
__________________________________________________________________________________________________
conv3_block9_1_conv (Conv2D)    (None, 4, 4, 128)    49152       conv3_block9_0_relu[0][0]        
__________________________________________________________________________________________________
conv3_block9_1_bn (BatchNormali (None, 4, 4, 128)    512         conv3_block9_1_conv[0][0]        
__________________________________________________________________________________________________
conv3_block9_1_relu (Activation (None, 4, 4, 128)    0           conv3_block9_1_bn[0][0]          
__________________________________________________________________________________________________
conv3_block9_2_conv (Conv2D)    (None, 4, 4, 32)     36864       conv3_block9_1_relu[0][0]        
__________________________________________________________________________________________________
conv3_block9_concat (Concatenat (None, 4, 4, 416)    0           conv3_block8_concat[0][0]        
                                                                 conv3_block9_2_conv[0][0]        
__________________________________________________________________________________________________
conv3_block10_0_bn (BatchNormal (None, 4, 4, 416)    1664        conv3_block9_concat[0][0]        
__________________________________________________________________________________________________
conv3_block10_0_relu (Activatio (None, 4, 4, 416)    0           conv3_block10_0_bn[0][0]         
__________________________________________________________________________________________________
conv3_block10_1_conv (Conv2D)   (None, 4, 4, 128)    53248       conv3_block10_0_relu[0][0]       
__________________________________________________________________________________________________
conv3_block10_1_bn (BatchNormal (None, 4, 4, 128)    512         conv3_block10_1_conv[0][0]       
__________________________________________________________________________________________________
conv3_block10_1_relu (Activatio (None, 4, 4, 128)    0           conv3_block10_1_bn[0][0]         
__________________________________________________________________________________________________
conv3_block10_2_conv (Conv2D)   (None, 4, 4, 32)     36864       conv3_block10_1_relu[0][0]       
__________________________________________________________________________________________________
conv3_block10_concat (Concatena (None, 4, 4, 448)    0           conv3_block9_concat[0][0]        
                                                                 conv3_block10_2_conv[0][0]       
__________________________________________________________________________________________________
conv3_block11_0_bn (BatchNormal (None, 4, 4, 448)    1792        conv3_block10_concat[0][0]       
__________________________________________________________________________________________________
conv3_block11_0_relu (Activatio (None, 4, 4, 448)    0           conv3_block11_0_bn[0][0]         
__________________________________________________________________________________________________
conv3_block11_1_conv (Conv2D)   (None, 4, 4, 128)    57344       conv3_block11_0_relu[0][0]       
__________________________________________________________________________________________________
conv3_block11_1_bn (BatchNormal (None, 4, 4, 128)    512         conv3_block11_1_conv[0][0]       
__________________________________________________________________________________________________
conv3_block11_1_relu (Activatio (None, 4, 4, 128)    0           conv3_block11_1_bn[0][0]         
__________________________________________________________________________________________________
conv3_block11_2_conv (Conv2D)   (None, 4, 4, 32)     36864       conv3_block11_1_relu[0][0]       
__________________________________________________________________________________________________
conv3_block11_concat (Concatena (None, 4, 4, 480)    0           conv3_block10_concat[0][0]       
                                                                 conv3_block11_2_conv[0][0]       
__________________________________________________________________________________________________
conv3_block12_0_bn (BatchNormal (None, 4, 4, 480)    1920        conv3_block11_concat[0][0]       
__________________________________________________________________________________________________
conv3_block12_0_relu (Activatio (None, 4, 4, 480)    0           conv3_block12_0_bn[0][0]         
__________________________________________________________________________________________________
conv3_block12_1_conv (Conv2D)   (None, 4, 4, 128)    61440       conv3_block12_0_relu[0][0]       
__________________________________________________________________________________________________
conv3_block12_1_bn (BatchNormal (None, 4, 4, 128)    512         conv3_block12_1_conv[0][0]       
__________________________________________________________________________________________________
conv3_block12_1_relu (Activatio (None, 4, 4, 128)    0           conv3_block12_1_bn[0][0]         
__________________________________________________________________________________________________
conv3_block12_2_conv (Conv2D)   (None, 4, 4, 32)     36864       conv3_block12_1_relu[0][0]       
__________________________________________________________________________________________________
conv3_block12_concat (Concatena (None, 4, 4, 512)    0           conv3_block11_concat[0][0]       
                                                                 conv3_block12_2_conv[0][0]       
__________________________________________________________________________________________________
pool3_bn (BatchNormalization)   (None, 4, 4, 512)    2048        conv3_block12_concat[0][0]       
__________________________________________________________________________________________________
pool3_relu (Activation)         (None, 4, 4, 512)    0           pool3_bn[0][0]                   
__________________________________________________________________________________________________
pool3_conv (Conv2D)             (None, 4, 4, 256)    131072      pool3_relu[0][0]                 
__________________________________________________________________________________________________
pool3_pool (AveragePooling2D)   (None, 2, 2, 256)    0           pool3_conv[0][0]                 
__________________________________________________________________________________________________
conv4_block1_0_bn (BatchNormali (None, 2, 2, 256)    1024        pool3_pool[0][0]                 
__________________________________________________________________________________________________
conv4_block1_0_relu (Activation (None, 2, 2, 256)    0           conv4_block1_0_bn[0][0]          
__________________________________________________________________________________________________
conv4_block1_1_conv (Conv2D)    (None, 2, 2, 128)    32768       conv4_block1_0_relu[0][0]        
__________________________________________________________________________________________________
conv4_block1_1_bn (BatchNormali (None, 2, 2, 128)    512         conv4_block1_1_conv[0][0]        
__________________________________________________________________________________________________
conv4_block1_1_relu (Activation (None, 2, 2, 128)    0           conv4_block1_1_bn[0][0]          
__________________________________________________________________________________________________
conv4_block1_2_conv (Conv2D)    (None, 2, 2, 32)     36864       conv4_block1_1_relu[0][0]        
__________________________________________________________________________________________________
conv4_block1_concat (Concatenat (None, 2, 2, 288)    0           pool3_pool[0][0]                 
                                                                 conv4_block1_2_conv[0][0]        
__________________________________________________________________________________________________
conv4_block2_0_bn (BatchNormali (None, 2, 2, 288)    1152        conv4_block1_concat[0][0]        
__________________________________________________________________________________________________
conv4_block2_0_relu (Activation (None, 2, 2, 288)    0           conv4_block2_0_bn[0][0]          
__________________________________________________________________________________________________
conv4_block2_1_conv (Conv2D)    (None, 2, 2, 128)    36864       conv4_block2_0_relu[0][0]        
__________________________________________________________________________________________________
conv4_block2_1_bn (BatchNormali (None, 2, 2, 128)    512         conv4_block2_1_conv[0][0]        
__________________________________________________________________________________________________
conv4_block2_1_relu (Activation (None, 2, 2, 128)    0           conv4_block2_1_bn[0][0]          
__________________________________________________________________________________________________
conv4_block2_2_conv (Conv2D)    (None, 2, 2, 32)     36864       conv4_block2_1_relu[0][0]        
__________________________________________________________________________________________________
conv4_block2_concat (Concatenat (None, 2, 2, 320)    0           conv4_block1_concat[0][0]        
                                                                 conv4_block2_2_conv[0][0]        
__________________________________________________________________________________________________
conv4_block3_0_bn (BatchNormali (None, 2, 2, 320)    1280        conv4_block2_concat[0][0]        
__________________________________________________________________________________________________
conv4_block3_0_relu (Activation (None, 2, 2, 320)    0           conv4_block3_0_bn[0][0]          
__________________________________________________________________________________________________
conv4_block3_1_conv (Conv2D)    (None, 2, 2, 128)    40960       conv4_block3_0_relu[0][0]        
__________________________________________________________________________________________________
conv4_block3_1_bn (BatchNormali (None, 2, 2, 128)    512         conv4_block3_1_conv[0][0]        
__________________________________________________________________________________________________
conv4_block3_1_relu (Activation (None, 2, 2, 128)    0           conv4_block3_1_bn[0][0]          
__________________________________________________________________________________________________
conv4_block3_2_conv (Conv2D)    (None, 2, 2, 32)     36864       conv4_block3_1_relu[0][0]        
__________________________________________________________________________________________________
conv4_block3_concat (Concatenat (None, 2, 2, 352)    0           conv4_block2_concat[0][0]        
                                                                 conv4_block3_2_conv[0][0]        
__________________________________________________________________________________________________
conv4_block4_0_bn (BatchNormali (None, 2, 2, 352)    1408        conv4_block3_concat[0][0]        
__________________________________________________________________________________________________
conv4_block4_0_relu (Activation (None, 2, 2, 352)    0           conv4_block4_0_bn[0][0]          
__________________________________________________________________________________________________
conv4_block4_1_conv (Conv2D)    (None, 2, 2, 128)    45056       conv4_block4_0_relu[0][0]        
__________________________________________________________________________________________________
conv4_block4_1_bn (BatchNormali (None, 2, 2, 128)    512         conv4_block4_1_conv[0][0]        
__________________________________________________________________________________________________
conv4_block4_1_relu (Activation (None, 2, 2, 128)    0           conv4_block4_1_bn[0][0]          
__________________________________________________________________________________________________
conv4_block4_2_conv (Conv2D)    (None, 2, 2, 32)     36864       conv4_block4_1_relu[0][0]        
__________________________________________________________________________________________________
conv4_block4_concat (Concatenat (None, 2, 2, 384)    0           conv4_block3_concat[0][0]        
                                                                 conv4_block4_2_conv[0][0]        
__________________________________________________________________________________________________
conv4_block5_0_bn (BatchNormali (None, 2, 2, 384)    1536        conv4_block4_concat[0][0]        
__________________________________________________________________________________________________
conv4_block5_0_relu (Activation (None, 2, 2, 384)    0           conv4_block5_0_bn[0][0]          
__________________________________________________________________________________________________
conv4_block5_1_conv (Conv2D)    (None, 2, 2, 128)    49152       conv4_block5_0_relu[0][0]        
__________________________________________________________________________________________________
conv4_block5_1_bn (BatchNormali (None, 2, 2, 128)    512         conv4_block5_1_conv[0][0]        
__________________________________________________________________________________________________
conv4_block5_1_relu (Activation (None, 2, 2, 128)    0           conv4_block5_1_bn[0][0]          
__________________________________________________________________________________________________
conv4_block5_2_conv (Conv2D)    (None, 2, 2, 32)     36864       conv4_block5_1_relu[0][0]        
__________________________________________________________________________________________________
conv4_block5_concat (Concatenat (None, 2, 2, 416)    0           conv4_block4_concat[0][0]        
                                                                 conv4_block5_2_conv[0][0]        
__________________________________________________________________________________________________
conv4_block6_0_bn (BatchNormali (None, 2, 2, 416)    1664        conv4_block5_concat[0][0]        
__________________________________________________________________________________________________
conv4_block6_0_relu (Activation (None, 2, 2, 416)    0           conv4_block6_0_bn[0][0]          
__________________________________________________________________________________________________
conv4_block6_1_conv (Conv2D)    (None, 2, 2, 128)    53248       conv4_block6_0_relu[0][0]        
__________________________________________________________________________________________________
conv4_block6_1_bn (BatchNormali (None, 2, 2, 128)    512         conv4_block6_1_conv[0][0]        
__________________________________________________________________________________________________
conv4_block6_1_relu (Activation (None, 2, 2, 128)    0           conv4_block6_1_bn[0][0]          
__________________________________________________________________________________________________
conv4_block6_2_conv (Conv2D)    (None, 2, 2, 32)     36864       conv4_block6_1_relu[0][0]        
__________________________________________________________________________________________________
conv4_block6_concat (Concatenat (None, 2, 2, 448)    0           conv4_block5_concat[0][0]        
                                                                 conv4_block6_2_conv[0][0]        
__________________________________________________________________________________________________
conv4_block7_0_bn (BatchNormali (None, 2, 2, 448)    1792        conv4_block6_concat[0][0]        
__________________________________________________________________________________________________
conv4_block7_0_relu (Activation (None, 2, 2, 448)    0           conv4_block7_0_bn[0][0]          
__________________________________________________________________________________________________
conv4_block7_1_conv (Conv2D)    (None, 2, 2, 128)    57344       conv4_block7_0_relu[0][0]        
__________________________________________________________________________________________________
conv4_block7_1_bn (BatchNormali (None, 2, 2, 128)    512         conv4_block7_1_conv[0][0]        
__________________________________________________________________________________________________
conv4_block7_1_relu (Activation (None, 2, 2, 128)    0           conv4_block7_1_bn[0][0]          
__________________________________________________________________________________________________
conv4_block7_2_conv (Conv2D)    (None, 2, 2, 32)     36864       conv4_block7_1_relu[0][0]        
__________________________________________________________________________________________________
conv4_block7_concat (Concatenat (None, 2, 2, 480)    0           conv4_block6_concat[0][0]        
                                                                 conv4_block7_2_conv[0][0]        
__________________________________________________________________________________________________
conv4_block8_0_bn (BatchNormali (None, 2, 2, 480)    1920        conv4_block7_concat[0][0]        
__________________________________________________________________________________________________
conv4_block8_0_relu (Activation (None, 2, 2, 480)    0           conv4_block8_0_bn[0][0]          
__________________________________________________________________________________________________
conv4_block8_1_conv (Conv2D)    (None, 2, 2, 128)    61440       conv4_block8_0_relu[0][0]        
__________________________________________________________________________________________________
conv4_block8_1_bn (BatchNormali (None, 2, 2, 128)    512         conv4_block8_1_conv[0][0]        
__________________________________________________________________________________________________
conv4_block8_1_relu (Activation (None, 2, 2, 128)    0           conv4_block8_1_bn[0][0]          
__________________________________________________________________________________________________
conv4_block8_2_conv (Conv2D)    (None, 2, 2, 32)     36864       conv4_block8_1_relu[0][0]        
__________________________________________________________________________________________________
conv4_block8_concat (Concatenat (None, 2, 2, 512)    0           conv4_block7_concat[0][0]        
                                                                 conv4_block8_2_conv[0][0]        
__________________________________________________________________________________________________
conv4_block9_0_bn (BatchNormali (None, 2, 2, 512)    2048        conv4_block8_concat[0][0]        
__________________________________________________________________________________________________
conv4_block9_0_relu (Activation (None, 2, 2, 512)    0           conv4_block9_0_bn[0][0]          
__________________________________________________________________________________________________
conv4_block9_1_conv (Conv2D)    (None, 2, 2, 128)    65536       conv4_block9_0_relu[0][0]        
__________________________________________________________________________________________________
conv4_block9_1_bn (BatchNormali (None, 2, 2, 128)    512         conv4_block9_1_conv[0][0]        
__________________________________________________________________________________________________
conv4_block9_1_relu (Activation (None, 2, 2, 128)    0           conv4_block9_1_bn[0][0]          
__________________________________________________________________________________________________
conv4_block9_2_conv (Conv2D)    (None, 2, 2, 32)     36864       conv4_block9_1_relu[0][0]        
__________________________________________________________________________________________________
conv4_block9_concat (Concatenat (None, 2, 2, 544)    0           conv4_block8_concat[0][0]        
                                                                 conv4_block9_2_conv[0][0]        
__________________________________________________________________________________________________
conv4_block10_0_bn (BatchNormal (None, 2, 2, 544)    2176        conv4_block9_concat[0][0]        
__________________________________________________________________________________________________
conv4_block10_0_relu (Activatio (None, 2, 2, 544)    0           conv4_block10_0_bn[0][0]         
__________________________________________________________________________________________________
conv4_block10_1_conv (Conv2D)   (None, 2, 2, 128)    69632       conv4_block10_0_relu[0][0]       
__________________________________________________________________________________________________
conv4_block10_1_bn (BatchNormal (None, 2, 2, 128)    512         conv4_block10_1_conv[0][0]       
__________________________________________________________________________________________________
conv4_block10_1_relu (Activatio (None, 2, 2, 128)    0           conv4_block10_1_bn[0][0]         
__________________________________________________________________________________________________
conv4_block10_2_conv (Conv2D)   (None, 2, 2, 32)     36864       conv4_block10_1_relu[0][0]       
__________________________________________________________________________________________________
conv4_block10_concat (Concatena (None, 2, 2, 576)    0           conv4_block9_concat[0][0]        
                                                                 conv4_block10_2_conv[0][0]       
__________________________________________________________________________________________________
conv4_block11_0_bn (BatchNormal (None, 2, 2, 576)    2304        conv4_block10_concat[0][0]       
__________________________________________________________________________________________________
conv4_block11_0_relu (Activatio (None, 2, 2, 576)    0           conv4_block11_0_bn[0][0]         
__________________________________________________________________________________________________
conv4_block11_1_conv (Conv2D)   (None, 2, 2, 128)    73728       conv4_block11_0_relu[0][0]       
__________________________________________________________________________________________________
conv4_block11_1_bn (BatchNormal (None, 2, 2, 128)    512         conv4_block11_1_conv[0][0]       
__________________________________________________________________________________________________
conv4_block11_1_relu (Activatio (None, 2, 2, 128)    0           conv4_block11_1_bn[0][0]         
__________________________________________________________________________________________________
conv4_block11_2_conv (Conv2D)   (None, 2, 2, 32)     36864       conv4_block11_1_relu[0][0]       
__________________________________________________________________________________________________
conv4_block11_concat (Concatena (None, 2, 2, 608)    0           conv4_block10_concat[0][0]       
                                                                 conv4_block11_2_conv[0][0]       
__________________________________________________________________________________________________
conv4_block12_0_bn (BatchNormal (None, 2, 2, 608)    2432        conv4_block11_concat[0][0]       
__________________________________________________________________________________________________
conv4_block12_0_relu (Activatio (None, 2, 2, 608)    0           conv4_block12_0_bn[0][0]         
__________________________________________________________________________________________________
conv4_block12_1_conv (Conv2D)   (None, 2, 2, 128)    77824       conv4_block12_0_relu[0][0]       
__________________________________________________________________________________________________
conv4_block12_1_bn (BatchNormal (None, 2, 2, 128)    512         conv4_block12_1_conv[0][0]       
__________________________________________________________________________________________________
conv4_block12_1_relu (Activatio (None, 2, 2, 128)    0           conv4_block12_1_bn[0][0]         
__________________________________________________________________________________________________
conv4_block12_2_conv (Conv2D)   (None, 2, 2, 32)     36864       conv4_block12_1_relu[0][0]       
__________________________________________________________________________________________________
conv4_block12_concat (Concatena (None, 2, 2, 640)    0           conv4_block11_concat[0][0]       
                                                                 conv4_block12_2_conv[0][0]       
__________________________________________________________________________________________________
conv4_block13_0_bn (BatchNormal (None, 2, 2, 640)    2560        conv4_block12_concat[0][0]       
__________________________________________________________________________________________________
conv4_block13_0_relu (Activatio (None, 2, 2, 640)    0           conv4_block13_0_bn[0][0]         
__________________________________________________________________________________________________
conv4_block13_1_conv (Conv2D)   (None, 2, 2, 128)    81920       conv4_block13_0_relu[0][0]       
__________________________________________________________________________________________________
conv4_block13_1_bn (BatchNormal (None, 2, 2, 128)    512         conv4_block13_1_conv[0][0]       
__________________________________________________________________________________________________
conv4_block13_1_relu (Activatio (None, 2, 2, 128)    0           conv4_block13_1_bn[0][0]         
__________________________________________________________________________________________________
conv4_block13_2_conv (Conv2D)   (None, 2, 2, 32)     36864       conv4_block13_1_relu[0][0]       
__________________________________________________________________________________________________
conv4_block13_concat (Concatena (None, 2, 2, 672)    0           conv4_block12_concat[0][0]       
                                                                 conv4_block13_2_conv[0][0]       
__________________________________________________________________________________________________
conv4_block14_0_bn (BatchNormal (None, 2, 2, 672)    2688        conv4_block13_concat[0][0]       
__________________________________________________________________________________________________
conv4_block14_0_relu (Activatio (None, 2, 2, 672)    0           conv4_block14_0_bn[0][0]         
__________________________________________________________________________________________________
conv4_block14_1_conv (Conv2D)   (None, 2, 2, 128)    86016       conv4_block14_0_relu[0][0]       
__________________________________________________________________________________________________
conv4_block14_1_bn (BatchNormal (None, 2, 2, 128)    512         conv4_block14_1_conv[0][0]       
__________________________________________________________________________________________________
conv4_block14_1_relu (Activatio (None, 2, 2, 128)    0           conv4_block14_1_bn[0][0]         
__________________________________________________________________________________________________
conv4_block14_2_conv (Conv2D)   (None, 2, 2, 32)     36864       conv4_block14_1_relu[0][0]       
__________________________________________________________________________________________________
conv4_block14_concat (Concatena (None, 2, 2, 704)    0           conv4_block13_concat[0][0]       
                                                                 conv4_block14_2_conv[0][0]       
__________________________________________________________________________________________________
conv4_block15_0_bn (BatchNormal (None, 2, 2, 704)    2816        conv4_block14_concat[0][0]       
__________________________________________________________________________________________________
conv4_block15_0_relu (Activatio (None, 2, 2, 704)    0           conv4_block15_0_bn[0][0]         
__________________________________________________________________________________________________
conv4_block15_1_conv (Conv2D)   (None, 2, 2, 128)    90112       conv4_block15_0_relu[0][0]       
__________________________________________________________________________________________________
conv4_block15_1_bn (BatchNormal (None, 2, 2, 128)    512         conv4_block15_1_conv[0][0]       
__________________________________________________________________________________________________
conv4_block15_1_relu (Activatio (None, 2, 2, 128)    0           conv4_block15_1_bn[0][0]         
__________________________________________________________________________________________________
conv4_block15_2_conv (Conv2D)   (None, 2, 2, 32)     36864       conv4_block15_1_relu[0][0]       
__________________________________________________________________________________________________
conv4_block15_concat (Concatena (None, 2, 2, 736)    0           conv4_block14_concat[0][0]       
                                                                 conv4_block15_2_conv[0][0]       
__________________________________________________________________________________________________
conv4_block16_0_bn (BatchNormal (None, 2, 2, 736)    2944        conv4_block15_concat[0][0]       
__________________________________________________________________________________________________
conv4_block16_0_relu (Activatio (None, 2, 2, 736)    0           conv4_block16_0_bn[0][0]         
__________________________________________________________________________________________________
conv4_block16_1_conv (Conv2D)   (None, 2, 2, 128)    94208       conv4_block16_0_relu[0][0]       
__________________________________________________________________________________________________
conv4_block16_1_bn (BatchNormal (None, 2, 2, 128)    512         conv4_block16_1_conv[0][0]       
__________________________________________________________________________________________________
conv4_block16_1_relu (Activatio (None, 2, 2, 128)    0           conv4_block16_1_bn[0][0]         
__________________________________________________________________________________________________
conv4_block16_2_conv (Conv2D)   (None, 2, 2, 32)     36864       conv4_block16_1_relu[0][0]       
__________________________________________________________________________________________________
conv4_block16_concat (Concatena (None, 2, 2, 768)    0           conv4_block15_concat[0][0]       
                                                                 conv4_block16_2_conv[0][0]       
__________________________________________________________________________________________________
conv4_block17_0_bn (BatchNormal (None, 2, 2, 768)    3072        conv4_block16_concat[0][0]       
__________________________________________________________________________________________________
conv4_block17_0_relu (Activatio (None, 2, 2, 768)    0           conv4_block17_0_bn[0][0]         
__________________________________________________________________________________________________
conv4_block17_1_conv (Conv2D)   (None, 2, 2, 128)    98304       conv4_block17_0_relu[0][0]       
__________________________________________________________________________________________________
conv4_block17_1_bn (BatchNormal (None, 2, 2, 128)    512         conv4_block17_1_conv[0][0]       
__________________________________________________________________________________________________
conv4_block17_1_relu (Activatio (None, 2, 2, 128)    0           conv4_block17_1_bn[0][0]         
__________________________________________________________________________________________________
conv4_block17_2_conv (Conv2D)   (None, 2, 2, 32)     36864       conv4_block17_1_relu[0][0]       
__________________________________________________________________________________________________
conv4_block17_concat (Concatena (None, 2, 2, 800)    0           conv4_block16_concat[0][0]       
                                                                 conv4_block17_2_conv[0][0]       
__________________________________________________________________________________________________
conv4_block18_0_bn (BatchNormal (None, 2, 2, 800)    3200        conv4_block17_concat[0][0]       
__________________________________________________________________________________________________
conv4_block18_0_relu (Activatio (None, 2, 2, 800)    0           conv4_block18_0_bn[0][0]         
__________________________________________________________________________________________________
conv4_block18_1_conv (Conv2D)   (None, 2, 2, 128)    102400      conv4_block18_0_relu[0][0]       
__________________________________________________________________________________________________
conv4_block18_1_bn (BatchNormal (None, 2, 2, 128)    512         conv4_block18_1_conv[0][0]       
__________________________________________________________________________________________________
conv4_block18_1_relu (Activatio (None, 2, 2, 128)    0           conv4_block18_1_bn[0][0]         
__________________________________________________________________________________________________
conv4_block18_2_conv (Conv2D)   (None, 2, 2, 32)     36864       conv4_block18_1_relu[0][0]       
__________________________________________________________________________________________________
conv4_block18_concat (Concatena (None, 2, 2, 832)    0           conv4_block17_concat[0][0]       
                                                                 conv4_block18_2_conv[0][0]       
__________________________________________________________________________________________________
conv4_block19_0_bn (BatchNormal (None, 2, 2, 832)    3328        conv4_block18_concat[0][0]       
__________________________________________________________________________________________________
conv4_block19_0_relu (Activatio (None, 2, 2, 832)    0           conv4_block19_0_bn[0][0]         
__________________________________________________________________________________________________
conv4_block19_1_conv (Conv2D)   (None, 2, 2, 128)    106496      conv4_block19_0_relu[0][0]       
__________________________________________________________________________________________________
conv4_block19_1_bn (BatchNormal (None, 2, 2, 128)    512         conv4_block19_1_conv[0][0]       
__________________________________________________________________________________________________
conv4_block19_1_relu (Activatio (None, 2, 2, 128)    0           conv4_block19_1_bn[0][0]         
__________________________________________________________________________________________________
conv4_block19_2_conv (Conv2D)   (None, 2, 2, 32)     36864       conv4_block19_1_relu[0][0]       
__________________________________________________________________________________________________
conv4_block19_concat (Concatena (None, 2, 2, 864)    0           conv4_block18_concat[0][0]       
                                                                 conv4_block19_2_conv[0][0]       
__________________________________________________________________________________________________
conv4_block20_0_bn (BatchNormal (None, 2, 2, 864)    3456        conv4_block19_concat[0][0]       
__________________________________________________________________________________________________
conv4_block20_0_relu (Activatio (None, 2, 2, 864)    0           conv4_block20_0_bn[0][0]         
__________________________________________________________________________________________________
conv4_block20_1_conv (Conv2D)   (None, 2, 2, 128)    110592      conv4_block20_0_relu[0][0]       
__________________________________________________________________________________________________
conv4_block20_1_bn (BatchNormal (None, 2, 2, 128)    512         conv4_block20_1_conv[0][0]       
__________________________________________________________________________________________________
conv4_block20_1_relu (Activatio (None, 2, 2, 128)    0           conv4_block20_1_bn[0][0]         
__________________________________________________________________________________________________
conv4_block20_2_conv (Conv2D)   (None, 2, 2, 32)     36864       conv4_block20_1_relu[0][0]       
__________________________________________________________________________________________________
conv4_block20_concat (Concatena (None, 2, 2, 896)    0           conv4_block19_concat[0][0]       
                                                                 conv4_block20_2_conv[0][0]       
__________________________________________________________________________________________________
conv4_block21_0_bn (BatchNormal (None, 2, 2, 896)    3584        conv4_block20_concat[0][0]       
__________________________________________________________________________________________________
conv4_block21_0_relu (Activatio (None, 2, 2, 896)    0           conv4_block21_0_bn[0][0]         
__________________________________________________________________________________________________
conv4_block21_1_conv (Conv2D)   (None, 2, 2, 128)    114688      conv4_block21_0_relu[0][0]       
__________________________________________________________________________________________________
conv4_block21_1_bn (BatchNormal (None, 2, 2, 128)    512         conv4_block21_1_conv[0][0]       
__________________________________________________________________________________________________
conv4_block21_1_relu (Activatio (None, 2, 2, 128)    0           conv4_block21_1_bn[0][0]         
__________________________________________________________________________________________________
conv4_block21_2_conv (Conv2D)   (None, 2, 2, 32)     36864       conv4_block21_1_relu[0][0]       
__________________________________________________________________________________________________
conv4_block21_concat (Concatena (None, 2, 2, 928)    0           conv4_block20_concat[0][0]       
                                                                 conv4_block21_2_conv[0][0]       
__________________________________________________________________________________________________
conv4_block22_0_bn (BatchNormal (None, 2, 2, 928)    3712        conv4_block21_concat[0][0]       
__________________________________________________________________________________________________
conv4_block22_0_relu (Activatio (None, 2, 2, 928)    0           conv4_block22_0_bn[0][0]         
__________________________________________________________________________________________________
conv4_block22_1_conv (Conv2D)   (None, 2, 2, 128)    118784      conv4_block22_0_relu[0][0]       
__________________________________________________________________________________________________
conv4_block22_1_bn (BatchNormal (None, 2, 2, 128)    512         conv4_block22_1_conv[0][0]       
__________________________________________________________________________________________________
conv4_block22_1_relu (Activatio (None, 2, 2, 128)    0           conv4_block22_1_bn[0][0]         
__________________________________________________________________________________________________
conv4_block22_2_conv (Conv2D)   (None, 2, 2, 32)     36864       conv4_block22_1_relu[0][0]       
__________________________________________________________________________________________________
conv4_block22_concat (Concatena (None, 2, 2, 960)    0           conv4_block21_concat[0][0]       
                                                                 conv4_block22_2_conv[0][0]       
__________________________________________________________________________________________________
conv4_block23_0_bn (BatchNormal (None, 2, 2, 960)    3840        conv4_block22_concat[0][0]       
__________________________________________________________________________________________________
conv4_block23_0_relu (Activatio (None, 2, 2, 960)    0           conv4_block23_0_bn[0][0]         
__________________________________________________________________________________________________
conv4_block23_1_conv (Conv2D)   (None, 2, 2, 128)    122880      conv4_block23_0_relu[0][0]       
__________________________________________________________________________________________________
conv4_block23_1_bn (BatchNormal (None, 2, 2, 128)    512         conv4_block23_1_conv[0][0]       
__________________________________________________________________________________________________
conv4_block23_1_relu (Activatio (None, 2, 2, 128)    0           conv4_block23_1_bn[0][0]         
__________________________________________________________________________________________________
conv4_block23_2_conv (Conv2D)   (None, 2, 2, 32)     36864       conv4_block23_1_relu[0][0]       
__________________________________________________________________________________________________
conv4_block23_concat (Concatena (None, 2, 2, 992)    0           conv4_block22_concat[0][0]       
                                                                 conv4_block23_2_conv[0][0]       
__________________________________________________________________________________________________
conv4_block24_0_bn (BatchNormal (None, 2, 2, 992)    3968        conv4_block23_concat[0][0]       
__________________________________________________________________________________________________
conv4_block24_0_relu (Activatio (None, 2, 2, 992)    0           conv4_block24_0_bn[0][0]         
__________________________________________________________________________________________________
conv4_block24_1_conv (Conv2D)   (None, 2, 2, 128)    126976      conv4_block24_0_relu[0][0]       
__________________________________________________________________________________________________
conv4_block24_1_bn (BatchNormal (None, 2, 2, 128)    512         conv4_block24_1_conv[0][0]       
__________________________________________________________________________________________________
conv4_block24_1_relu (Activatio (None, 2, 2, 128)    0           conv4_block24_1_bn[0][0]         
__________________________________________________________________________________________________
conv4_block24_2_conv (Conv2D)   (None, 2, 2, 32)     36864       conv4_block24_1_relu[0][0]       
__________________________________________________________________________________________________
conv4_block24_concat (Concatena (None, 2, 2, 1024)   0           conv4_block23_concat[0][0]       
                                                                 conv4_block24_2_conv[0][0]       
__________________________________________________________________________________________________
pool4_bn (BatchNormalization)   (None, 2, 2, 1024)   4096        conv4_block24_concat[0][0]       
__________________________________________________________________________________________________
pool4_relu (Activation)         (None, 2, 2, 1024)   0           pool4_bn[0][0]                   
__________________________________________________________________________________________________
pool4_conv (Conv2D)             (None, 2, 2, 512)    524288      pool4_relu[0][0]                 
__________________________________________________________________________________________________
pool4_pool (AveragePooling2D)   (None, 1, 1, 512)    0           pool4_conv[0][0]                 
__________________________________________________________________________________________________
conv5_block1_0_bn (BatchNormali (None, 1, 1, 512)    2048        pool4_pool[0][0]                 
__________________________________________________________________________________________________
conv5_block1_0_relu (Activation (None, 1, 1, 512)    0           conv5_block1_0_bn[0][0]          
__________________________________________________________________________________________________
conv5_block1_1_conv (Conv2D)    (None, 1, 1, 128)    65536       conv5_block1_0_relu[0][0]        
__________________________________________________________________________________________________
conv5_block1_1_bn (BatchNormali (None, 1, 1, 128)    512         conv5_block1_1_conv[0][0]        
__________________________________________________________________________________________________
conv5_block1_1_relu (Activation (None, 1, 1, 128)    0           conv5_block1_1_bn[0][0]          
__________________________________________________________________________________________________
conv5_block1_2_conv (Conv2D)    (None, 1, 1, 32)     36864       conv5_block1_1_relu[0][0]        
__________________________________________________________________________________________________
conv5_block1_concat (Concatenat (None, 1, 1, 544)    0           pool4_pool[0][0]                 
                                                                 conv5_block1_2_conv[0][0]        
__________________________________________________________________________________________________
conv5_block2_0_bn (BatchNormali (None, 1, 1, 544)    2176        conv5_block1_concat[0][0]        
__________________________________________________________________________________________________
conv5_block2_0_relu (Activation (None, 1, 1, 544)    0           conv5_block2_0_bn[0][0]          
__________________________________________________________________________________________________
conv5_block2_1_conv (Conv2D)    (None, 1, 1, 128)    69632       conv5_block2_0_relu[0][0]        
__________________________________________________________________________________________________
conv5_block2_1_bn (BatchNormali (None, 1, 1, 128)    512         conv5_block2_1_conv[0][0]        
__________________________________________________________________________________________________
conv5_block2_1_relu (Activation (None, 1, 1, 128)    0           conv5_block2_1_bn[0][0]          
__________________________________________________________________________________________________
conv5_block2_2_conv (Conv2D)    (None, 1, 1, 32)     36864       conv5_block2_1_relu[0][0]        
__________________________________________________________________________________________________
conv5_block2_concat (Concatenat (None, 1, 1, 576)    0           conv5_block1_concat[0][0]        
                                                                 conv5_block2_2_conv[0][0]        
__________________________________________________________________________________________________
conv5_block3_0_bn (BatchNormali (None, 1, 1, 576)    2304        conv5_block2_concat[0][0]        
__________________________________________________________________________________________________
conv5_block3_0_relu (Activation (None, 1, 1, 576)    0           conv5_block3_0_bn[0][0]          
__________________________________________________________________________________________________
conv5_block3_1_conv (Conv2D)    (None, 1, 1, 128)    73728       conv5_block3_0_relu[0][0]        
__________________________________________________________________________________________________
conv5_block3_1_bn (BatchNormali (None, 1, 1, 128)    512         conv5_block3_1_conv[0][0]        
__________________________________________________________________________________________________
conv5_block3_1_relu (Activation (None, 1, 1, 128)    0           conv5_block3_1_bn[0][0]          
__________________________________________________________________________________________________
conv5_block3_2_conv (Conv2D)    (None, 1, 1, 32)     36864       conv5_block3_1_relu[0][0]        
__________________________________________________________________________________________________
conv5_block3_concat (Concatenat (None, 1, 1, 608)    0           conv5_block2_concat[0][0]        
                                                                 conv5_block3_2_conv[0][0]        
__________________________________________________________________________________________________
conv5_block4_0_bn (BatchNormali (None, 1, 1, 608)    2432        conv5_block3_concat[0][0]        
__________________________________________________________________________________________________
conv5_block4_0_relu (Activation (None, 1, 1, 608)    0           conv5_block4_0_bn[0][0]          
__________________________________________________________________________________________________
conv5_block4_1_conv (Conv2D)    (None, 1, 1, 128)    77824       conv5_block4_0_relu[0][0]        
__________________________________________________________________________________________________
conv5_block4_1_bn (BatchNormali (None, 1, 1, 128)    512         conv5_block4_1_conv[0][0]        
__________________________________________________________________________________________________
conv5_block4_1_relu (Activation (None, 1, 1, 128)    0           conv5_block4_1_bn[0][0]          
__________________________________________________________________________________________________
conv5_block4_2_conv (Conv2D)    (None, 1, 1, 32)     36864       conv5_block4_1_relu[0][0]        
__________________________________________________________________________________________________
conv5_block4_concat (Concatenat (None, 1, 1, 640)    0           conv5_block3_concat[0][0]        
                                                                 conv5_block4_2_conv[0][0]        
__________________________________________________________________________________________________
conv5_block5_0_bn (BatchNormali (None, 1, 1, 640)    2560        conv5_block4_concat[0][0]        
__________________________________________________________________________________________________
conv5_block5_0_relu (Activation (None, 1, 1, 640)    0           conv5_block5_0_bn[0][0]          
__________________________________________________________________________________________________
conv5_block5_1_conv (Conv2D)    (None, 1, 1, 128)    81920       conv5_block5_0_relu[0][0]        
__________________________________________________________________________________________________
conv5_block5_1_bn (BatchNormali (None, 1, 1, 128)    512         conv5_block5_1_conv[0][0]        
__________________________________________________________________________________________________
conv5_block5_1_relu (Activation (None, 1, 1, 128)    0           conv5_block5_1_bn[0][0]          
__________________________________________________________________________________________________
conv5_block5_2_conv (Conv2D)    (None, 1, 1, 32)     36864       conv5_block5_1_relu[0][0]        
__________________________________________________________________________________________________
conv5_block5_concat (Concatenat (None, 1, 1, 672)    0           conv5_block4_concat[0][0]        
                                                                 conv5_block5_2_conv[0][0]        
__________________________________________________________________________________________________
conv5_block6_0_bn (BatchNormali (None, 1, 1, 672)    2688        conv5_block5_concat[0][0]        
__________________________________________________________________________________________________
conv5_block6_0_relu (Activation (None, 1, 1, 672)    0           conv5_block6_0_bn[0][0]          
__________________________________________________________________________________________________
conv5_block6_1_conv (Conv2D)    (None, 1, 1, 128)    86016       conv5_block6_0_relu[0][0]        
__________________________________________________________________________________________________
conv5_block6_1_bn (BatchNormali (None, 1, 1, 128)    512         conv5_block6_1_conv[0][0]        
__________________________________________________________________________________________________
conv5_block6_1_relu (Activation (None, 1, 1, 128)    0           conv5_block6_1_bn[0][0]          
__________________________________________________________________________________________________
conv5_block6_2_conv (Conv2D)    (None, 1, 1, 32)     36864       conv5_block6_1_relu[0][0]        
__________________________________________________________________________________________________
conv5_block6_concat (Concatenat (None, 1, 1, 704)    0           conv5_block5_concat[0][0]        
                                                                 conv5_block6_2_conv[0][0]        
__________________________________________________________________________________________________
conv5_block7_0_bn (BatchNormali (None, 1, 1, 704)    2816        conv5_block6_concat[0][0]        
__________________________________________________________________________________________________
conv5_block7_0_relu (Activation (None, 1, 1, 704)    0           conv5_block7_0_bn[0][0]          
__________________________________________________________________________________________________
conv5_block7_1_conv (Conv2D)    (None, 1, 1, 128)    90112       conv5_block7_0_relu[0][0]        
__________________________________________________________________________________________________
conv5_block7_1_bn (BatchNormali (None, 1, 1, 128)    512         conv5_block7_1_conv[0][0]        
__________________________________________________________________________________________________
conv5_block7_1_relu (Activation (None, 1, 1, 128)    0           conv5_block7_1_bn[0][0]          
__________________________________________________________________________________________________
conv5_block7_2_conv (Conv2D)    (None, 1, 1, 32)     36864       conv5_block7_1_relu[0][0]        
__________________________________________________________________________________________________
conv5_block7_concat (Concatenat (None, 1, 1, 736)    0           conv5_block6_concat[0][0]        
                                                                 conv5_block7_2_conv[0][0]        
__________________________________________________________________________________________________
conv5_block8_0_bn (BatchNormali (None, 1, 1, 736)    2944        conv5_block7_concat[0][0]        
__________________________________________________________________________________________________
conv5_block8_0_relu (Activation (None, 1, 1, 736)    0           conv5_block8_0_bn[0][0]          
__________________________________________________________________________________________________
conv5_block8_1_conv (Conv2D)    (None, 1, 1, 128)    94208       conv5_block8_0_relu[0][0]        
__________________________________________________________________________________________________
conv5_block8_1_bn (BatchNormali (None, 1, 1, 128)    512         conv5_block8_1_conv[0][0]        
__________________________________________________________________________________________________
conv5_block8_1_relu (Activation (None, 1, 1, 128)    0           conv5_block8_1_bn[0][0]          
__________________________________________________________________________________________________
conv5_block8_2_conv (Conv2D)    (None, 1, 1, 32)     36864       conv5_block8_1_relu[0][0]        
__________________________________________________________________________________________________
conv5_block8_concat (Concatenat (None, 1, 1, 768)    0           conv5_block7_concat[0][0]        
                                                                 conv5_block8_2_conv[0][0]        
__________________________________________________________________________________________________
conv5_block9_0_bn (BatchNormali (None, 1, 1, 768)    3072        conv5_block8_concat[0][0]        
__________________________________________________________________________________________________
conv5_block9_0_relu (Activation (None, 1, 1, 768)    0           conv5_block9_0_bn[0][0]          
__________________________________________________________________________________________________
conv5_block9_1_conv (Conv2D)    (None, 1, 1, 128)    98304       conv5_block9_0_relu[0][0]        
__________________________________________________________________________________________________
conv5_block9_1_bn (BatchNormali (None, 1, 1, 128)    512         conv5_block9_1_conv[0][0]        
__________________________________________________________________________________________________
conv5_block9_1_relu (Activation (None, 1, 1, 128)    0           conv5_block9_1_bn[0][0]          
__________________________________________________________________________________________________
conv5_block9_2_conv (Conv2D)    (None, 1, 1, 32)     36864       conv5_block9_1_relu[0][0]        
__________________________________________________________________________________________________
conv5_block9_concat (Concatenat (None, 1, 1, 800)    0           conv5_block8_concat[0][0]        
                                                                 conv5_block9_2_conv[0][0]        
__________________________________________________________________________________________________
conv5_block10_0_bn (BatchNormal (None, 1, 1, 800)    3200        conv5_block9_concat[0][0]        
__________________________________________________________________________________________________
conv5_block10_0_relu (Activatio (None, 1, 1, 800)    0           conv5_block10_0_bn[0][0]         
__________________________________________________________________________________________________
conv5_block10_1_conv (Conv2D)   (None, 1, 1, 128)    102400      conv5_block10_0_relu[0][0]       
__________________________________________________________________________________________________
conv5_block10_1_bn (BatchNormal (None, 1, 1, 128)    512         conv5_block10_1_conv[0][0]       
__________________________________________________________________________________________________
conv5_block10_1_relu (Activatio (None, 1, 1, 128)    0           conv5_block10_1_bn[0][0]         
__________________________________________________________________________________________________
conv5_block10_2_conv (Conv2D)   (None, 1, 1, 32)     36864       conv5_block10_1_relu[0][0]       
__________________________________________________________________________________________________
conv5_block10_concat (Concatena (None, 1, 1, 832)    0           conv5_block9_concat[0][0]        
                                                                 conv5_block10_2_conv[0][0]       
__________________________________________________________________________________________________
conv5_block11_0_bn (BatchNormal (None, 1, 1, 832)    3328        conv5_block10_concat[0][0]       
__________________________________________________________________________________________________
conv5_block11_0_relu (Activatio (None, 1, 1, 832)    0           conv5_block11_0_bn[0][0]         
__________________________________________________________________________________________________
conv5_block11_1_conv (Conv2D)   (None, 1, 1, 128)    106496      conv5_block11_0_relu[0][0]       
__________________________________________________________________________________________________
conv5_block11_1_bn (BatchNormal (None, 1, 1, 128)    512         conv5_block11_1_conv[0][0]       
__________________________________________________________________________________________________
conv5_block11_1_relu (Activatio (None, 1, 1, 128)    0           conv5_block11_1_bn[0][0]         
__________________________________________________________________________________________________
conv5_block11_2_conv (Conv2D)   (None, 1, 1, 32)     36864       conv5_block11_1_relu[0][0]       
__________________________________________________________________________________________________
conv5_block11_concat (Concatena (None, 1, 1, 864)    0           conv5_block10_concat[0][0]       
                                                                 conv5_block11_2_conv[0][0]       
__________________________________________________________________________________________________
conv5_block12_0_bn (BatchNormal (None, 1, 1, 864)    3456        conv5_block11_concat[0][0]       
__________________________________________________________________________________________________
conv5_block12_0_relu (Activatio (None, 1, 1, 864)    0           conv5_block12_0_bn[0][0]         
__________________________________________________________________________________________________
conv5_block12_1_conv (Conv2D)   (None, 1, 1, 128)    110592      conv5_block12_0_relu[0][0]       
__________________________________________________________________________________________________
conv5_block12_1_bn (BatchNormal (None, 1, 1, 128)    512         conv5_block12_1_conv[0][0]       
__________________________________________________________________________________________________
conv5_block12_1_relu (Activatio (None, 1, 1, 128)    0           conv5_block12_1_bn[0][0]         
__________________________________________________________________________________________________
conv5_block12_2_conv (Conv2D)   (None, 1, 1, 32)     36864       conv5_block12_1_relu[0][0]       
__________________________________________________________________________________________________
conv5_block12_concat (Concatena (None, 1, 1, 896)    0           conv5_block11_concat[0][0]       
                                                                 conv5_block12_2_conv[0][0]       
__________________________________________________________________________________________________
conv5_block13_0_bn (BatchNormal (None, 1, 1, 896)    3584        conv5_block12_concat[0][0]       
__________________________________________________________________________________________________
conv5_block13_0_relu (Activatio (None, 1, 1, 896)    0           conv5_block13_0_bn[0][0]         
__________________________________________________________________________________________________
conv5_block13_1_conv (Conv2D)   (None, 1, 1, 128)    114688      conv5_block13_0_relu[0][0]       
__________________________________________________________________________________________________
conv5_block13_1_bn (BatchNormal (None, 1, 1, 128)    512         conv5_block13_1_conv[0][0]       
__________________________________________________________________________________________________
conv5_block13_1_relu (Activatio (None, 1, 1, 128)    0           conv5_block13_1_bn[0][0]         
__________________________________________________________________________________________________
conv5_block13_2_conv (Conv2D)   (None, 1, 1, 32)     36864       conv5_block13_1_relu[0][0]       
__________________________________________________________________________________________________
conv5_block13_concat (Concatena (None, 1, 1, 928)    0           conv5_block12_concat[0][0]       
                                                                 conv5_block13_2_conv[0][0]       
__________________________________________________________________________________________________
conv5_block14_0_bn (BatchNormal (None, 1, 1, 928)    3712        conv5_block13_concat[0][0]       
__________________________________________________________________________________________________
conv5_block14_0_relu (Activatio (None, 1, 1, 928)    0           conv5_block14_0_bn[0][0]         
__________________________________________________________________________________________________
conv5_block14_1_conv (Conv2D)   (None, 1, 1, 128)    118784      conv5_block14_0_relu[0][0]       
__________________________________________________________________________________________________
conv5_block14_1_bn (BatchNormal (None, 1, 1, 128)    512         conv5_block14_1_conv[0][0]       
__________________________________________________________________________________________________
conv5_block14_1_relu (Activatio (None, 1, 1, 128)    0           conv5_block14_1_bn[0][0]         
__________________________________________________________________________________________________
conv5_block14_2_conv (Conv2D)   (None, 1, 1, 32)     36864       conv5_block14_1_relu[0][0]       
__________________________________________________________________________________________________
conv5_block14_concat (Concatena (None, 1, 1, 960)    0           conv5_block13_concat[0][0]       
                                                                 conv5_block14_2_conv[0][0]       
__________________________________________________________________________________________________
conv5_block15_0_bn (BatchNormal (None, 1, 1, 960)    3840        conv5_block14_concat[0][0]       
__________________________________________________________________________________________________
conv5_block15_0_relu (Activatio (None, 1, 1, 960)    0           conv5_block15_0_bn[0][0]         
__________________________________________________________________________________________________
conv5_block15_1_conv (Conv2D)   (None, 1, 1, 128)    122880      conv5_block15_0_relu[0][0]       
__________________________________________________________________________________________________
conv5_block15_1_bn (BatchNormal (None, 1, 1, 128)    512         conv5_block15_1_conv[0][0]       
__________________________________________________________________________________________________
conv5_block15_1_relu (Activatio (None, 1, 1, 128)    0           conv5_block15_1_bn[0][0]         
__________________________________________________________________________________________________
conv5_block15_2_conv (Conv2D)   (None, 1, 1, 32)     36864       conv5_block15_1_relu[0][0]       
__________________________________________________________________________________________________
conv5_block15_concat (Concatena (None, 1, 1, 992)    0           conv5_block14_concat[0][0]       
                                                                 conv5_block15_2_conv[0][0]       
__________________________________________________________________________________________________
conv5_block16_0_bn (BatchNormal (None, 1, 1, 992)    3968        conv5_block15_concat[0][0]       
__________________________________________________________________________________________________
conv5_block16_0_relu (Activatio (None, 1, 1, 992)    0           conv5_block16_0_bn[0][0]         
__________________________________________________________________________________________________
conv5_block16_1_conv (Conv2D)   (None, 1, 1, 128)    126976      conv5_block16_0_relu[0][0]       
__________________________________________________________________________________________________
conv5_block16_1_bn (BatchNormal (None, 1, 1, 128)    512         conv5_block16_1_conv[0][0]       
__________________________________________________________________________________________________
conv5_block16_1_relu (Activatio (None, 1, 1, 128)    0           conv5_block16_1_bn[0][0]         
__________________________________________________________________________________________________
conv5_block16_2_conv (Conv2D)   (None, 1, 1, 32)     36864       conv5_block16_1_relu[0][0]       
__________________________________________________________________________________________________
conv5_block16_concat (Concatena (None, 1, 1, 1024)   0           conv5_block15_concat[0][0]       
                                                                 conv5_block16_2_conv[0][0]       
__________________________________________________________________________________________________
bn (BatchNormalization)         (None, 1, 1, 1024)   4096        conv5_block16_concat[0][0]       
__________________________________________________________________________________________________
relu (Activation)               (None, 1, 1, 1024)   0           bn[0][0]                         
__________________________________________________________________________________________________
global_average_pooling2d_1 (Glo (None, 1024)         0           relu[0][0]                       
__________________________________________________________________________________________________
dropout_1 (Dropout)             (None, 1024)         0           global_average_pooling2d_1[0][0] 
__________________________________________________________________________________________________
dense_1 (Dense)                 (None, 1024)         1049600     dropout_1[0][0]                  
__________________________________________________________________________________________________
dense_2 (Dense)                 (None, 10)           10250       dense_1[0][0]                    
==================================================================================================
Total params: 8,097,354
Trainable params: 8,013,706
Non-trainable params: 83,648
__________________________________________________________________________________________________
If not empty, the code is using GPU:
['/job:localhost/replica:0/task:0/device:GPU:0']
…
