…
y_train shape: (50000, 1)
/usr/local/lib/python3.6/dist-packages/keras_applications/resnet50.py:265: UserWarning: The output shape of `ResNet50(include_top=False)` has been changed since Keras 2.2.0.
  warnings.warn('The output shape of `ResNet50(include_top=False)` '
Learning rate:  0.001
__________________________________________________________________________________________________
Layer (type)                    Output Shape         Param #     Connected to                     
==================================================================================================
input_2 (InputLayer)            (None, 32, 32, 3)    0                                            
__________________________________________________________________________________________________
conv1_pad (ZeroPadding2D)       (None, 38, 38, 3)    0           input_2[0][0]                    
__________________________________________________________________________________________________
conv1 (Conv2D)                  (None, 16, 16, 64)   9472        conv1_pad[0][0]                  
__________________________________________________________________________________________________
bn_conv1 (BatchNormalization)   (None, 16, 16, 64)   256         conv1[0][0]                      
__________________________________________________________________________________________________
activation_50 (Activation)      (None, 16, 16, 64)   0           bn_conv1[0][0]                   
__________________________________________________________________________________________________
pool1_pad (ZeroPadding2D)       (None, 18, 18, 64)   0           activation_50[0][0]              
__________________________________________________________________________________________________
max_pooling2d_2 (MaxPooling2D)  (None, 8, 8, 64)     0           pool1_pad[0][0]                  
__________________________________________________________________________________________________
res2a_branch2a (Conv2D)         (None, 8, 8, 64)     4160        max_pooling2d_2[0][0]            
__________________________________________________________________________________________________
bn2a_branch2a (BatchNormalizati (None, 8, 8, 64)     256         res2a_branch2a[0][0]             
__________________________________________________________________________________________________
activation_51 (Activation)      (None, 8, 8, 64)     0           bn2a_branch2a[0][0]              
__________________________________________________________________________________________________
res2a_branch2b (Conv2D)         (None, 8, 8, 64)     36928       activation_51[0][0]              
__________________________________________________________________________________________________
bn2a_branch2b (BatchNormalizati (None, 8, 8, 64)     256         res2a_branch2b[0][0]             
__________________________________________________________________________________________________
activation_52 (Activation)      (None, 8, 8, 64)     0           bn2a_branch2b[0][0]              
__________________________________________________________________________________________________
res2a_branch2c (Conv2D)         (None, 8, 8, 256)    16640       activation_52[0][0]              
__________________________________________________________________________________________________
res2a_branch1 (Conv2D)          (None, 8, 8, 256)    16640       max_pooling2d_2[0][0]            
__________________________________________________________________________________________________
bn2a_branch2c (BatchNormalizati (None, 8, 8, 256)    1024        res2a_branch2c[0][0]             
__________________________________________________________________________________________________
bn2a_branch1 (BatchNormalizatio (None, 8, 8, 256)    1024        res2a_branch1[0][0]              
__________________________________________________________________________________________________
add_17 (Add)                    (None, 8, 8, 256)    0           bn2a_branch2c[0][0]              
                                                                 bn2a_branch1[0][0]               
__________________________________________________________________________________________________
activation_53 (Activation)      (None, 8, 8, 256)    0           add_17[0][0]                     
__________________________________________________________________________________________________
res2b_branch2a (Conv2D)         (None, 8, 8, 64)     16448       activation_53[0][0]              
__________________________________________________________________________________________________
bn2b_branch2a (BatchNormalizati (None, 8, 8, 64)     256         res2b_branch2a[0][0]             
__________________________________________________________________________________________________
activation_54 (Activation)      (None, 8, 8, 64)     0           bn2b_branch2a[0][0]              
__________________________________________________________________________________________________
res2b_branch2b (Conv2D)         (None, 8, 8, 64)     36928       activation_54[0][0]              
__________________________________________________________________________________________________
bn2b_branch2b (BatchNormalizati (None, 8, 8, 64)     256         res2b_branch2b[0][0]             
__________________________________________________________________________________________________
activation_55 (Activation)      (None, 8, 8, 64)     0           bn2b_branch2b[0][0]              
__________________________________________________________________________________________________
res2b_branch2c (Conv2D)         (None, 8, 8, 256)    16640       activation_55[0][0]              
__________________________________________________________________________________________________
bn2b_branch2c (BatchNormalizati (None, 8, 8, 256)    1024        res2b_branch2c[0][0]             
__________________________________________________________________________________________________
add_18 (Add)                    (None, 8, 8, 256)    0           bn2b_branch2c[0][0]              
                                                                 activation_53[0][0]              
__________________________________________________________________________________________________
activation_56 (Activation)      (None, 8, 8, 256)    0           add_18[0][0]                     
__________________________________________________________________________________________________
res2c_branch2a (Conv2D)         (None, 8, 8, 64)     16448       activation_56[0][0]              
__________________________________________________________________________________________________
bn2c_branch2a (BatchNormalizati (None, 8, 8, 64)     256         res2c_branch2a[0][0]             
__________________________________________________________________________________________________
activation_57 (Activation)      (None, 8, 8, 64)     0           bn2c_branch2a[0][0]              
__________________________________________________________________________________________________
res2c_branch2b (Conv2D)         (None, 8, 8, 64)     36928       activation_57[0][0]              
__________________________________________________________________________________________________
bn2c_branch2b (BatchNormalizati (None, 8, 8, 64)     256         res2c_branch2b[0][0]             
__________________________________________________________________________________________________
activation_58 (Activation)      (None, 8, 8, 64)     0           bn2c_branch2b[0][0]              
__________________________________________________________________________________________________
res2c_branch2c (Conv2D)         (None, 8, 8, 256)    16640       activation_58[0][0]              
__________________________________________________________________________________________________
bn2c_branch2c (BatchNormalizati (None, 8, 8, 256)    1024        res2c_branch2c[0][0]             
__________________________________________________________________________________________________
add_19 (Add)                    (None, 8, 8, 256)    0           bn2c_branch2c[0][0]              
                                                                 activation_56[0][0]              
__________________________________________________________________________________________________
activation_59 (Activation)      (None, 8, 8, 256)    0           add_19[0][0]                     
__________________________________________________________________________________________________
res3a_branch2a (Conv2D)         (None, 4, 4, 128)    32896       activation_59[0][0]              
__________________________________________________________________________________________________
bn3a_branch2a (BatchNormalizati (None, 4, 4, 128)    512         res3a_branch2a[0][0]             
__________________________________________________________________________________________________
activation_60 (Activation)      (None, 4, 4, 128)    0           bn3a_branch2a[0][0]              
__________________________________________________________________________________________________
res3a_branch2b (Conv2D)         (None, 4, 4, 128)    147584      activation_60[0][0]              
__________________________________________________________________________________________________
bn3a_branch2b (BatchNormalizati (None, 4, 4, 128)    512         res3a_branch2b[0][0]             
__________________________________________________________________________________________________
activation_61 (Activation)      (None, 4, 4, 128)    0           bn3a_branch2b[0][0]              
__________________________________________________________________________________________________
res3a_branch2c (Conv2D)         (None, 4, 4, 512)    66048       activation_61[0][0]              
__________________________________________________________________________________________________
res3a_branch1 (Conv2D)          (None, 4, 4, 512)    131584      activation_59[0][0]              
__________________________________________________________________________________________________
bn3a_branch2c (BatchNormalizati (None, 4, 4, 512)    2048        res3a_branch2c[0][0]             
__________________________________________________________________________________________________
bn3a_branch1 (BatchNormalizatio (None, 4, 4, 512)    2048        res3a_branch1[0][0]              
__________________________________________________________________________________________________
add_20 (Add)                    (None, 4, 4, 512)    0           bn3a_branch2c[0][0]              
                                                                 bn3a_branch1[0][0]               
__________________________________________________________________________________________________
activation_62 (Activation)      (None, 4, 4, 512)    0           add_20[0][0]                     
__________________________________________________________________________________________________
res3b_branch2a (Conv2D)         (None, 4, 4, 128)    65664       activation_62[0][0]              
__________________________________________________________________________________________________
bn3b_branch2a (BatchNormalizati (None, 4, 4, 128)    512         res3b_branch2a[0][0]             
__________________________________________________________________________________________________
activation_63 (Activation)      (None, 4, 4, 128)    0           bn3b_branch2a[0][0]              
__________________________________________________________________________________________________
res3b_branch2b (Conv2D)         (None, 4, 4, 128)    147584      activation_63[0][0]              
__________________________________________________________________________________________________
bn3b_branch2b (BatchNormalizati (None, 4, 4, 128)    512         res3b_branch2b[0][0]             
__________________________________________________________________________________________________
activation_64 (Activation)      (None, 4, 4, 128)    0           bn3b_branch2b[0][0]              
__________________________________________________________________________________________________
res3b_branch2c (Conv2D)         (None, 4, 4, 512)    66048       activation_64[0][0]              
__________________________________________________________________________________________________
bn3b_branch2c (BatchNormalizati (None, 4, 4, 512)    2048        res3b_branch2c[0][0]             
__________________________________________________________________________________________________
add_21 (Add)                    (None, 4, 4, 512)    0           bn3b_branch2c[0][0]              
                                                                 activation_62[0][0]              
__________________________________________________________________________________________________
activation_65 (Activation)      (None, 4, 4, 512)    0           add_21[0][0]                     
__________________________________________________________________________________________________
res3c_branch2a (Conv2D)         (None, 4, 4, 128)    65664       activation_65[0][0]              
__________________________________________________________________________________________________
bn3c_branch2a (BatchNormalizati (None, 4, 4, 128)    512         res3c_branch2a[0][0]             
__________________________________________________________________________________________________
activation_66 (Activation)      (None, 4, 4, 128)    0           bn3c_branch2a[0][0]              
__________________________________________________________________________________________________
res3c_branch2b (Conv2D)         (None, 4, 4, 128)    147584      activation_66[0][0]              
__________________________________________________________________________________________________
bn3c_branch2b (BatchNormalizati (None, 4, 4, 128)    512         res3c_branch2b[0][0]             
__________________________________________________________________________________________________
activation_67 (Activation)      (None, 4, 4, 128)    0           bn3c_branch2b[0][0]              
__________________________________________________________________________________________________
res3c_branch2c (Conv2D)         (None, 4, 4, 512)    66048       activation_67[0][0]              
__________________________________________________________________________________________________
bn3c_branch2c (BatchNormalizati (None, 4, 4, 512)    2048        res3c_branch2c[0][0]             
__________________________________________________________________________________________________
add_22 (Add)                    (None, 4, 4, 512)    0           bn3c_branch2c[0][0]              
                                                                 activation_65[0][0]              
__________________________________________________________________________________________________
activation_68 (Activation)      (None, 4, 4, 512)    0           add_22[0][0]                     
__________________________________________________________________________________________________
res3d_branch2a (Conv2D)         (None, 4, 4, 128)    65664       activation_68[0][0]              
__________________________________________________________________________________________________
bn3d_branch2a (BatchNormalizati (None, 4, 4, 128)    512         res3d_branch2a[0][0]             
__________________________________________________________________________________________________
activation_69 (Activation)      (None, 4, 4, 128)    0           bn3d_branch2a[0][0]              
__________________________________________________________________________________________________
res3d_branch2b (Conv2D)         (None, 4, 4, 128)    147584      activation_69[0][0]              
__________________________________________________________________________________________________
bn3d_branch2b (BatchNormalizati (None, 4, 4, 128)    512         res3d_branch2b[0][0]             
__________________________________________________________________________________________________
activation_70 (Activation)      (None, 4, 4, 128)    0           bn3d_branch2b[0][0]              
__________________________________________________________________________________________________
res3d_branch2c (Conv2D)         (None, 4, 4, 512)    66048       activation_70[0][0]              
__________________________________________________________________________________________________
bn3d_branch2c (BatchNormalizati (None, 4, 4, 512)    2048        res3d_branch2c[0][0]             
__________________________________________________________________________________________________
add_23 (Add)                    (None, 4, 4, 512)    0           bn3d_branch2c[0][0]              
                                                                 activation_68[0][0]              
__________________________________________________________________________________________________
activation_71 (Activation)      (None, 4, 4, 512)    0           add_23[0][0]                     
__________________________________________________________________________________________________
res4a_branch2a (Conv2D)         (None, 2, 2, 256)    131328      activation_71[0][0]              
__________________________________________________________________________________________________
bn4a_branch2a (BatchNormalizati (None, 2, 2, 256)    1024        res4a_branch2a[0][0]             
__________________________________________________________________________________________________
activation_72 (Activation)      (None, 2, 2, 256)    0           bn4a_branch2a[0][0]              
__________________________________________________________________________________________________
res4a_branch2b (Conv2D)         (None, 2, 2, 256)    590080      activation_72[0][0]              
__________________________________________________________________________________________________
bn4a_branch2b (BatchNormalizati (None, 2, 2, 256)    1024        res4a_branch2b[0][0]             
__________________________________________________________________________________________________
activation_73 (Activation)      (None, 2, 2, 256)    0           bn4a_branch2b[0][0]              
__________________________________________________________________________________________________
res4a_branch2c (Conv2D)         (None, 2, 2, 1024)   263168      activation_73[0][0]              
__________________________________________________________________________________________________
res4a_branch1 (Conv2D)          (None, 2, 2, 1024)   525312      activation_71[0][0]              
__________________________________________________________________________________________________
bn4a_branch2c (BatchNormalizati (None, 2, 2, 1024)   4096        res4a_branch2c[0][0]             
__________________________________________________________________________________________________
bn4a_branch1 (BatchNormalizatio (None, 2, 2, 1024)   4096        res4a_branch1[0][0]              
__________________________________________________________________________________________________
add_24 (Add)                    (None, 2, 2, 1024)   0           bn4a_branch2c[0][0]              
                                                                 bn4a_branch1[0][0]               
__________________________________________________________________________________________________
activation_74 (Activation)      (None, 2, 2, 1024)   0           add_24[0][0]                     
__________________________________________________________________________________________________
res4b_branch2a (Conv2D)         (None, 2, 2, 256)    262400      activation_74[0][0]              
__________________________________________________________________________________________________
bn4b_branch2a (BatchNormalizati (None, 2, 2, 256)    1024        res4b_branch2a[0][0]             
__________________________________________________________________________________________________
activation_75 (Activation)      (None, 2, 2, 256)    0           bn4b_branch2a[0][0]              
__________________________________________________________________________________________________
res4b_branch2b (Conv2D)         (None, 2, 2, 256)    590080      activation_75[0][0]              
__________________________________________________________________________________________________
bn4b_branch2b (BatchNormalizati (None, 2, 2, 256)    1024        res4b_branch2b[0][0]             
__________________________________________________________________________________________________
activation_76 (Activation)      (None, 2, 2, 256)    0           bn4b_branch2b[0][0]              
__________________________________________________________________________________________________
res4b_branch2c (Conv2D)         (None, 2, 2, 1024)   263168      activation_76[0][0]              
__________________________________________________________________________________________________
bn4b_branch2c (BatchNormalizati (None, 2, 2, 1024)   4096        res4b_branch2c[0][0]             
__________________________________________________________________________________________________
add_25 (Add)                    (None, 2, 2, 1024)   0           bn4b_branch2c[0][0]              
                                                                 activation_74[0][0]              
__________________________________________________________________________________________________
activation_77 (Activation)      (None, 2, 2, 1024)   0           add_25[0][0]                     
__________________________________________________________________________________________________
res4c_branch2a (Conv2D)         (None, 2, 2, 256)    262400      activation_77[0][0]              
__________________________________________________________________________________________________
bn4c_branch2a (BatchNormalizati (None, 2, 2, 256)    1024        res4c_branch2a[0][0]             
__________________________________________________________________________________________________
activation_78 (Activation)      (None, 2, 2, 256)    0           bn4c_branch2a[0][0]              
__________________________________________________________________________________________________
res4c_branch2b (Conv2D)         (None, 2, 2, 256)    590080      activation_78[0][0]              
__________________________________________________________________________________________________
bn4c_branch2b (BatchNormalizati (None, 2, 2, 256)    1024        res4c_branch2b[0][0]             
__________________________________________________________________________________________________
activation_79 (Activation)      (None, 2, 2, 256)    0           bn4c_branch2b[0][0]              
__________________________________________________________________________________________________
res4c_branch2c (Conv2D)         (None, 2, 2, 1024)   263168      activation_79[0][0]              
__________________________________________________________________________________________________
bn4c_branch2c (BatchNormalizati (None, 2, 2, 1024)   4096        res4c_branch2c[0][0]             
__________________________________________________________________________________________________
add_26 (Add)                    (None, 2, 2, 1024)   0           bn4c_branch2c[0][0]              
                                                                 activation_77[0][0]              
__________________________________________________________________________________________________
activation_80 (Activation)      (None, 2, 2, 1024)   0           add_26[0][0]                     
__________________________________________________________________________________________________
res4d_branch2a (Conv2D)         (None, 2, 2, 256)    262400      activation_80[0][0]              
__________________________________________________________________________________________________
bn4d_branch2a (BatchNormalizati (None, 2, 2, 256)    1024        res4d_branch2a[0][0]             
__________________________________________________________________________________________________
activation_81 (Activation)      (None, 2, 2, 256)    0           bn4d_branch2a[0][0]              
__________________________________________________________________________________________________
res4d_branch2b (Conv2D)         (None, 2, 2, 256)    590080      activation_81[0][0]              
__________________________________________________________________________________________________
bn4d_branch2b (BatchNormalizati (None, 2, 2, 256)    1024        res4d_branch2b[0][0]             
__________________________________________________________________________________________________
activation_82 (Activation)      (None, 2, 2, 256)    0           bn4d_branch2b[0][0]              
__________________________________________________________________________________________________
res4d_branch2c (Conv2D)         (None, 2, 2, 1024)   263168      activation_82[0][0]              
__________________________________________________________________________________________________
bn4d_branch2c (BatchNormalizati (None, 2, 2, 1024)   4096        res4d_branch2c[0][0]             
__________________________________________________________________________________________________
add_27 (Add)                    (None, 2, 2, 1024)   0           bn4d_branch2c[0][0]              
                                                                 activation_80[0][0]              
__________________________________________________________________________________________________
activation_83 (Activation)      (None, 2, 2, 1024)   0           add_27[0][0]                     
__________________________________________________________________________________________________
res4e_branch2a (Conv2D)         (None, 2, 2, 256)    262400      activation_83[0][0]              
__________________________________________________________________________________________________
bn4e_branch2a (BatchNormalizati (None, 2, 2, 256)    1024        res4e_branch2a[0][0]             
__________________________________________________________________________________________________
activation_84 (Activation)      (None, 2, 2, 256)    0           bn4e_branch2a[0][0]              
__________________________________________________________________________________________________
res4e_branch2b (Conv2D)         (None, 2, 2, 256)    590080      activation_84[0][0]              
__________________________________________________________________________________________________
bn4e_branch2b (BatchNormalizati (None, 2, 2, 256)    1024        res4e_branch2b[0][0]             
__________________________________________________________________________________________________
activation_85 (Activation)      (None, 2, 2, 256)    0           bn4e_branch2b[0][0]              
__________________________________________________________________________________________________
res4e_branch2c (Conv2D)         (None, 2, 2, 1024)   263168      activation_85[0][0]              
__________________________________________________________________________________________________
bn4e_branch2c (BatchNormalizati (None, 2, 2, 1024)   4096        res4e_branch2c[0][0]             
__________________________________________________________________________________________________
add_28 (Add)                    (None, 2, 2, 1024)   0           bn4e_branch2c[0][0]              
                                                                 activation_83[0][0]              
__________________________________________________________________________________________________
activation_86 (Activation)      (None, 2, 2, 1024)   0           add_28[0][0]                     
__________________________________________________________________________________________________
res4f_branch2a (Conv2D)         (None, 2, 2, 256)    262400      activation_86[0][0]              
__________________________________________________________________________________________________
bn4f_branch2a (BatchNormalizati (None, 2, 2, 256)    1024        res4f_branch2a[0][0]             
__________________________________________________________________________________________________
activation_87 (Activation)      (None, 2, 2, 256)    0           bn4f_branch2a[0][0]              
__________________________________________________________________________________________________
res4f_branch2b (Conv2D)         (None, 2, 2, 256)    590080      activation_87[0][0]              
__________________________________________________________________________________________________
bn4f_branch2b (BatchNormalizati (None, 2, 2, 256)    1024        res4f_branch2b[0][0]             
__________________________________________________________________________________________________
activation_88 (Activation)      (None, 2, 2, 256)    0           bn4f_branch2b[0][0]              
__________________________________________________________________________________________________
res4f_branch2c (Conv2D)         (None, 2, 2, 1024)   263168      activation_88[0][0]              
__________________________________________________________________________________________________
bn4f_branch2c (BatchNormalizati (None, 2, 2, 1024)   4096        res4f_branch2c[0][0]             
__________________________________________________________________________________________________
add_29 (Add)                    (None, 2, 2, 1024)   0           bn4f_branch2c[0][0]              
                                                                 activation_86[0][0]              
__________________________________________________________________________________________________
activation_89 (Activation)      (None, 2, 2, 1024)   0           add_29[0][0]                     
__________________________________________________________________________________________________
res5a_branch2a (Conv2D)         (None, 1, 1, 512)    524800      activation_89[0][0]              
__________________________________________________________________________________________________
bn5a_branch2a (BatchNormalizati (None, 1, 1, 512)    2048        res5a_branch2a[0][0]             
__________________________________________________________________________________________________
activation_90 (Activation)      (None, 1, 1, 512)    0           bn5a_branch2a[0][0]              
__________________________________________________________________________________________________
res5a_branch2b (Conv2D)         (None, 1, 1, 512)    2359808     activation_90[0][0]              
__________________________________________________________________________________________________
bn5a_branch2b (BatchNormalizati (None, 1, 1, 512)    2048        res5a_branch2b[0][0]             
__________________________________________________________________________________________________
activation_91 (Activation)      (None, 1, 1, 512)    0           bn5a_branch2b[0][0]              
__________________________________________________________________________________________________
res5a_branch2c (Conv2D)         (None, 1, 1, 2048)   1050624     activation_91[0][0]              
__________________________________________________________________________________________________
res5a_branch1 (Conv2D)          (None, 1, 1, 2048)   2099200     activation_89[0][0]              
__________________________________________________________________________________________________
bn5a_branch2c (BatchNormalizati (None, 1, 1, 2048)   8192        res5a_branch2c[0][0]             
__________________________________________________________________________________________________
bn5a_branch1 (BatchNormalizatio (None, 1, 1, 2048)   8192        res5a_branch1[0][0]              
__________________________________________________________________________________________________
add_30 (Add)                    (None, 1, 1, 2048)   0           bn5a_branch2c[0][0]              
                                                                 bn5a_branch1[0][0]               
__________________________________________________________________________________________________
activation_92 (Activation)      (None, 1, 1, 2048)   0           add_30[0][0]                     
__________________________________________________________________________________________________
res5b_branch2a (Conv2D)         (None, 1, 1, 512)    1049088     activation_92[0][0]              
__________________________________________________________________________________________________
bn5b_branch2a (BatchNormalizati (None, 1, 1, 512)    2048        res5b_branch2a[0][0]             
__________________________________________________________________________________________________
activation_93 (Activation)      (None, 1, 1, 512)    0           bn5b_branch2a[0][0]              
__________________________________________________________________________________________________
res5b_branch2b (Conv2D)         (None, 1, 1, 512)    2359808     activation_93[0][0]              
__________________________________________________________________________________________________
bn5b_branch2b (BatchNormalizati (None, 1, 1, 512)    2048        res5b_branch2b[0][0]             
__________________________________________________________________________________________________
activation_94 (Activation)      (None, 1, 1, 512)    0           bn5b_branch2b[0][0]              
__________________________________________________________________________________________________
res5b_branch2c (Conv2D)         (None, 1, 1, 2048)   1050624     activation_94[0][0]              
__________________________________________________________________________________________________
bn5b_branch2c (BatchNormalizati (None, 1, 1, 2048)   8192        res5b_branch2c[0][0]             
__________________________________________________________________________________________________
add_31 (Add)                    (None, 1, 1, 2048)   0           bn5b_branch2c[0][0]              
                                                                 activation_92[0][0]              
__________________________________________________________________________________________________
activation_95 (Activation)      (None, 1, 1, 2048)   0           add_31[0][0]                     
__________________________________________________________________________________________________
res5c_branch2a (Conv2D)         (None, 1, 1, 512)    1049088     activation_95[0][0]              
__________________________________________________________________________________________________
bn5c_branch2a (BatchNormalizati (None, 1, 1, 512)    2048        res5c_branch2a[0][0]             
__________________________________________________________________________________________________
activation_96 (Activation)      (None, 1, 1, 512)    0           bn5c_branch2a[0][0]              
__________________________________________________________________________________________________
res5c_branch2b (Conv2D)         (None, 1, 1, 512)    2359808     activation_96[0][0]              
__________________________________________________________________________________________________
bn5c_branch2b (BatchNormalizati (None, 1, 1, 512)    2048        res5c_branch2b[0][0]             
__________________________________________________________________________________________________
activation_97 (Activation)      (None, 1, 1, 512)    0           bn5c_branch2b[0][0]              
__________________________________________________________________________________________________
res5c_branch2c (Conv2D)         (None, 1, 1, 2048)   1050624     activation_97[0][0]              
__________________________________________________________________________________________________
bn5c_branch2c (BatchNormalizati (None, 1, 1, 2048)   8192        res5c_branch2c[0][0]             
__________________________________________________________________________________________________
add_32 (Add)                    (None, 1, 1, 2048)   0           bn5c_branch2c[0][0]              
                                                                 activation_95[0][0]              
__________________________________________________________________________________________________
activation_98 (Activation)      (None, 1, 1, 2048)   0           add_32[0][0]                     
__________________________________________________________________________________________________
global_average_pooling2d_2 (Glo (None, 2048)         0           activation_98[0][0]              
__________________________________________________________________________________________________
dense_3 (Dense)                 (None, 1024)         2098176     global_average_pooling2d_2[0][0] 
__________________________________________________________________________________________________
dense_4 (Dense)                 (None, 10)           10250       dense_3[0][0]                    
==================================================================================================
Total params: 25,696,138
Trainable params: 2,108,426
Non-trainable params: 23,587,712
__________________________________________________________________________________________________
If not empty, the code is using GPU:
['/job:localhost/replica:0/task:0/device:GPU:0']
…
