0.00001
Training with:
Network model name: vgg16
Batch size: 64
Epochs: 100
Optimizer: Adam
Loss: categorical_crossentropy
Dropout: True
Data augmentation: True
Pre-trained: False
x_train shape: (50000, 32, 32, 3)
50000 train samples
10000 test samples
y_train shape: (50000, 1)
Learning rate:  1e-05
_________________________________________________________________
Layer (type)                 Output Shape              Param #   
=================================================================
input_2 (InputLayer)         (None, 32, 32, 3)         0         
_________________________________________________________________
block1_conv1 (Conv2D)        (None, 32, 32, 64)        1792      
_________________________________________________________________
block1_conv2 (Conv2D)        (None, 32, 32, 64)        36928     
_________________________________________________________________
block1_pool (MaxPooling2D)   (None, 16, 16, 64)        0         
_________________________________________________________________
block2_conv1 (Conv2D)        (None, 16, 16, 128)       73856     
_________________________________________________________________
block2_conv2 (Conv2D)        (None, 16, 16, 128)       147584    
_________________________________________________________________
block2_pool (MaxPooling2D)   (None, 8, 8, 128)         0         
_________________________________________________________________
block3_conv1 (Conv2D)        (None, 8, 8, 256)         295168    
_________________________________________________________________
block3_conv2 (Conv2D)        (None, 8, 8, 256)         590080    
_________________________________________________________________
block3_conv3 (Conv2D)        (None, 8, 8, 256)         590080    
_________________________________________________________________
block3_pool (MaxPooling2D)   (None, 4, 4, 256)         0         
_________________________________________________________________
block4_conv1 (Conv2D)        (None, 4, 4, 512)         1180160   
_________________________________________________________________
block4_conv2 (Conv2D)        (None, 4, 4, 512)         2359808   
_________________________________________________________________
block4_conv3 (Conv2D)        (None, 4, 4, 512)         2359808   
_________________________________________________________________
block4_pool (MaxPooling2D)   (None, 2, 2, 512)         0         
_________________________________________________________________
block5_conv1 (Conv2D)        (None, 2, 2, 512)         2359808   
_________________________________________________________________
block5_conv2 (Conv2D)        (None, 2, 2, 512)         2359808   
_________________________________________________________________
block5_conv3 (Conv2D)        (None, 2, 2, 512)         2359808   
_________________________________________________________________
block5_pool (MaxPooling2D)   (None, 1, 1, 512)         0         
_________________________________________________________________
global_average_pooling2d_2 ( (None, 512)               0         
_________________________________________________________________
dropout_2 (Dropout)          (None, 512)               0         
_________________________________________________________________
dense_3 (Dense)              (None, 1024)              525312    
_________________________________________________________________
dense_4 (Dense)              (None, 10)                10250     
=================================================================
Total params: 15,250,250
Trainable params: 15,250,250
Non-trainable params: 0
_________________________________________________________________
If not empty, the code is using GPU:
['/job:localhost/replica:0/task:0/device:GPU:0']
Using real-time data augmentation.
Epoch 1/100
Learning rate:  1e-05
 - 40s - loss: 2.0484 - acc: 0.2205 - val_loss: 1.8161 - val_acc: 0.3148
…
